Assignments & Labs/Assignments/Transformers from scratch/best_model.pt (torch, 39211 bytes, 18 tensors)

input_net.1.weight f4 [32, 10]
0.16999795 -0.15054242 -0.03514723 -0.13388638 -0.17942223 0.18147928 -0.078059025 -0.010035023
0.15415181 -0.22173819 0.08555089 -0.24441074 0.022755366 0.119897306 -0.07438892 -0.029134348
-0.29442874 -0.10002386 0.017327944 -0.20742546 0.080990516 0.011135962 -0.1781761 -0.046110805
-0.16208954 0.16221002 -0.3026255 0.17114674 0.38202232 0.13529944 0.08743264 0.13087705
0.035656217 0.24165241 -0.20305932 -0.11316467 0.055148553 -0.0027124418 -0.22041483 -0.123340316
-0.099857554 0.26037693 -0.007944594 0.282117 -0.102737434 0.29836455 -0.39465505 -0.036172446
0.20504738 -0.09404093 0.3148133 -0.08615524 0.03635792 0.2095822 0.09847762 0.056089126
0.16747954 -0.08007121 -0.28972927 -0.09158287 0.35676917 -0.21485227 -0.04891594 0.08660112
-0.0660519 -0.13285273 -0.12251164 0.21115692 0.1385251 0.19315606 0.22972277 0.07534566
0.2959933 -0.1326615 -0.25329062 -0.16942295 0.27489114 0.42607677 -0.19456434 -0.1077002
0.26890165 -0.25273785 -0.2060396 0.28335744 -0.094109416 0.08672398 -0.3756131 0.243639
-0.14680289 -0.0065994225 0.073604956 -0.16985784 -0.06751197 -0.1842778 -0.16720906 -0.22497664
0.091770984 0.23656178 0.028096234 -0.08775603 -0.056473542 -0.061908625 0.34031337 0.17907327
-0.28430682 -0.18750735 -0.21459408 0.18362987 -0.013229198 -0.2906457 0.16274844 0.13105452
-0.42522094 0.21246168 0.15165746 0.340179 0.06676239 -0.1346283 0.020108383 0.1376125
0.4018048 0.074896224 -0.17263916 0.076483086 -0.3119451 0.058344565 0.33204558 0.25563905
-0.055012207 -0.0015194622 -0.11501065 0.24895702 0.12483696 -0.34381932 0.42008796 -0.34975493
0.1780881 -0.23916206 -0.112581715 -0.47663733 -0.006240884 0.020529984 0.020933034 -0.2599928
-0.2570226 0.13645522 0.19717698 -0.016610598 -0.29319492 -0.42161414 -0.30230072 -0.051677573
-0.071389526 -0.28502142 0.2281755 0.16360427 -0.23181792 0.08237906 0.37090945 0.32099298
-0.27637368 0.39212698 -0.22625084 -0.24286917 -0.15868038 -0.07477325 0.23082224 0.15322985
-0.54485947 0.3868558 -0.15322356 -0.20893517 0.08273678 0.2149114 -0.11023549 -0.25179613
-0.036875527 0.25719503 0.13857189 0.16976447 0.26137802 -0.0134980185 -0.0030349363 0.29166806
0.027427537 -0.28326565 0.09199536 0.060959328 -0.018162072 0.466811 0.028100343 -0.31166357
-0.17397471 0.18333372 0.14160575 0.2484977 -0.309127 0.017064158 0.20352042 0.019046897
-0.3257881 0.37691885 0.036677606 0.23041098 0.17612076 0.13617465 0.39207843 -0.1990979
0.108531706 0.16885856 -0.021002138 0.23423898 0.1875711 -0.06797043 -0.08676651 0.13840635
0.10825451 0.0041881767 0.09299171 0.07780735 0.013698321 -0.37617216 -0.052391253 -0.30899608
-0.18905187 0.09889391 0.37630418 -0.19085555 0.16846068 0.10284448 0.007965138 -0.32212436
0.2931416 0.34130457 -0.15162036 0.32771844 0.35278893 -0.32379866 0.10388952 -0.040513903
0.16451645 0.030194147 -0.31846085 -0.093489885 0.14556989 0.21974595 -0.18729807 0.16833131
0.4657707 -0.014519983 -0.27836177 -0.06901843 -0.050954625 0.020537008 0.21473297 0.29342964
00000000: f113 2e3e cb27 1abe 8bf6 0fbd 8319 09be
00000010: 76ba 37be b4d5 393e 69dd 9fbd f069 24bc
00000020: f9d9 1d3e 560f 63be 4e35 af3d cf46 7abe
00000030: 7669 ba3c b88c f53d 3859 98bd 28ab eebc
00000040: 5dbf 96be 4fd9 ccbd 55f3 8d3c 5767 54be
00000050: 5bde a53d 9c73 363c cc73 36be afde 3cbd
00000060: cdfa 25be 621a 263e bbf1 9abe 1741 2f3e
00000070: 6e98 c33e f08b 0a3e e20f b33d a204 063e
00000080: 410c 123d bb73 773e c8ee 4fbe e1c2 e7bd
00000090: 73e3 613d 39c3 31bb 6db4 61be d999 fcbd
000000a0: 1e82 ccbd 2050 853e 0b2a 02bc a471 903e
000000b0: 0168 d2bd 3dc3 983e 3a10 cabe 8f29 14bd
000000c0: f1f7 513e 8898 c0bd 352f a13e 2972 b0bd
000000d0: 0bec 143d b79c 563e a2ae c93d b6bd 653d
000000e0: c27f 2b3e 60fc a3bd 6557 94be cd8f bbbd
000000f0: 73aa b63e 3c02 5cbe 155c 48bd ee5b b13d
00000100: 3846 87bd 8c0a 08be 62e7 fabd 8539 583e
00000110: 86d9 0d3e b4ca 453e 723c 6b3e d34e 9a3d
00000120: 6f8c 973e 6bd8 07be 4faf 81be 367d 2dbe
00000130: 88be 8c3e bc26 da3e e03b 47be ec91 dcbd
00000140: 7aad 893e db66 81be 0bfc 52be 3a14 913e
00000150: 70bc c0bd 589c b13d 5c50 c0be 817c 793e
00000160: 7f53 16be f83f d8bb 32be 963d 37ef 2dbe
00000170: b743 8abd 52b3 3cbe da38 2bbe 4760 66be
00000180: 6df2 bb3d 403d 723e 132a e63c 6fb9 b3bd
00000190: cd50 67bd e693 7dbd 8e3d ae3e fc5e 373e
000001a0: aa90 91be ed01 40be 8dbe 5bbe 7809 3c3e
000001b0: 47bf 58bc 83cf 94be 87a7 263e 2833 063e
000001c0: 8fb6 d9be 8e8f 593e 184c 1b3e f12b ae3e
000001d0: b8ba 883d 00dc 09be 56ba a43c 4bea 0c3e
000001e0: 5cb9 cd3e 3163 993d 52c8 30be 2aa3 9c3d
000001f0: 45b7 9fbe b6fa 6e3d e101 aa3e 1fe3 823e
00000200: 7b54 61bd b128 c7ba b48a ebbd 97ee 7e3e
00000210: 85aa ff3d 1609 b0be c515 d73e 1413 b3be
00000220: ba5c 363e e6e6 74be 3e91 e6bd cf09 f4be
00000230: 5480 ccbb 7f2e a83c c17b ab3c c71d 85be
00000240: 7798 83be ebba 0b3e c3e8 493e f312 88bc
00000250: a51d 96be cfdd d7be 29c7 9abe ddab 53bd
00000260: ac34 92bd 54ee 91be d7a6 693e e187 273e
00000270: ad61 6dbe 5ab6 a83d d8e7 bd3e 3159 a43e
00000280: da80 8dbe dec4 c83e 4dae 67be b2b2 78be
00000290: 1c7d 22be b822 99bd aa5c 6c3e 49e8 1c3e
000002a0: e97b 0bbf f711 c63e a3e6 1cbe 1af3 55be
000002b0: e771 a93d bc11 5c3e 25c3 e1bd 6ceb 80be
000002c0: cb0a 17bd 11af 833e cae5 0d3e bdd6 2d3e
000002d0: 57d3 853e cb26 5dbc c8e5 46bb 8455 953e
000002e0: b7af e03c 3208 91be 1068 bc3d 7db0 793d
000002f0: a0c8 94bc da01 ef3e b132 e63c 5e92 9fbe
00000300: 6d26 32be d6bb 3b3e 1901 113e 2e76 7e3e
00000310: e545 9ebe 22ca 8b3c a867 503e 3d08 9c3c
00000320: b3cd a6be 82fb c03e 423b 163d dbf0 6b3e
00000330: 0059 343e 5e71 0b3e 81be c83e 52e0 4bbe
00000340: df45 de3d 42e9 2c3e ad0c acbc 58dc 6f3e
00000350: a312 403e 1534 8bbd a4b2 b1bd 65ba 0d3e
00000360: 8ab4 dd3d f93c 893b 7072 be3d 7659 9f3d
00000370: ec6e 603c a399 c0be 3698 56bd bc34 9ebe
00000380: d096 41be e488 ca3d f1aa c03e a36f 43be
00000390: f580 2c3e 20a0 d23d 3680 023c 7ced a4be
000003a0: a816 963e 79bf ae3e 5e42 1bbe b6ca a73e
000003b0: c0a0 b43e f0c8 a5be 07c4 d43d e8f1 25bd
000003c0: 0077 283e b759 f73c 4d0d a3be a077 bfbd
000003d0: 4610 153e 1505 613e 11cb 3fbe 0b5f 2c3e
000003e0: 7f79 ee3e 39e5 6dbc 6f85 8ebe 8959 8dbd
000003f0: ccb5 50bd 3a3d a83c f6e2 5b3e 693c 963e

input_net.1.bias f4 [32]
-0.25048167 -0.14775966 0.26699054 0.076653294 0.012791248 0.058252506 0.0002724597 0.09954984
-0.03454562 -0.2631084 -0.14817144 -0.22266501 0.013660766 0.053439658 0.08965048 -0.15998012
0.11153281 0.2264988 0.23602356 0.066962995 -0.29612735 0.12149926 -0.01836871 0.026159558
-0.15802175 0.010181286 0.19374585 0.12903309 -0.0060570305 0.10280444 0.25623876 0.10123313
00000000: 223f 80be 4f4e 17be fcb2 883e 67fc 9c3d
00000010: 6292 513c 2e9a 6e3d ecd8 8e39 c9e0 cb3d
00000020: b57f 0dbd 25b6 86be 41ba 17be 4c02 64be
00000030: 68d1 5f3c 8be3 5a3d ac9a b73d d4d1 23be
00000040: 506b e43d 4def 673e 29b0 713e e523 893d
00000050: 019e 97be 9bd4 f83d fa79 96bc 924c d63c
00000060: 74d0 21be 69cf 263c 5065 463e 4021 043e
00000070: 0e7a c6bb 228b d23d ba31 833e 5153 cf3d

transformer.layers.0.self_attn.o_proj.weight f4 [32, 32]
-0.18491514 0.12817402 0.2807833 0.09388356 0.052797325 -0.1400078 0.24035811 0.004409654
0.08773512 -0.14379472 -0.060555745 -0.1035899 -0.038828857 0.07930949 0.06092543 0.20808987
0.23270439 -0.21838671 0.13023247 -0.15126848 0.12010131 0.008146967 -0.23165923 0.13422179
-0.014407984 0.35218483 0.19092248 -0.27993855 -0.25442067 0.02151752 -0.08789388 0.059124384
0.04362429 0.0691749 -0.15304019 0.2919648 0.13557093 -0.25160447 0.30183265 -0.23192134
-0.28926313 -0.1772848 -0.2602434 0.13030258 -0.09377995 -0.33962852 0.056079894 -0.027608141
-0.1467672 -0.15443164 0.28297356 0.001802503 -0.11888154 0.3385642 0.008494462 0.19049066
0.25013795 0.12742874 0.11760934 0.2759944 0.15284148 -0.238509 -0.1550923 -0.06281494
-0.004081753 -0.16860528 -0.24715696 0.13459541 0.06075215 0.1732142 0.2593392 -0.091778524
-0.049504332 0.061377987 0.31391597 0.21275733 0.06596523 -0.25907326 0.15120222 0.13592447
0.1736457 -0.33843225 -0.030946001 0.15110706 0.2941778 0.13411763 0.13984954 -0.01039483
-0.037576225 0.029310277 0.21539395 0.31535512 -0.36925972 -0.017120833 -0.205031 0.2097616
-0.18692608 -0.17986956 -0.17489369 0.11677837 -0.22393063 -0.03442014 0.0133664245 0.004737195
-0.29549906 0.05628343 -0.09352335 -0.19805492 -0.010794095 -0.0968387 0.24514388 0.17651337
0.1426617 -0.10156218 -0.21784855 -0.2577004 0.1288146 0.053025544 0.06645299 0.30887324
0.35336077 -0.014368206 -0.26756918 0.24730347 0.3835439 0.23306796 0.14896971 -0.23195194
0.09999289 0.30579415 0.10494377 0.09629359 -4.927348e-05 -0.09257532 -0.21330817 0.06408065
-0.0056871283 -0.28179258 0.21872705 0.061895408 0.13473956 0.16754226 0.19603659 -0.2686134
0.13025886 -0.085373126 -0.061153505 0.18781647 -0.18962328 -0.22327036 -0.10353902 -0.095984474
-0.2002706 -0.09706851 0.022209128 -0.20294489 0.17225492 -0.37850195 0.04338294 0.30872202
-0.07502679 -0.16896577 0.19265042 -0.25741172 -0.29749283 0.020340143 0.18950294 0.06558023
-0.17063169 -0.275836 -0.1626475 0.22888142 0.10446543 0.10334307 -0.2107842 0.24234796
-0.14307156 0.29667053 -0.21300234 -0.25993058 0.2080671 0.32059875 0.10199251 0.14635524
-0.16900913 0.23011099 0.2374683 0.20577414 0.010111307 -0.082008116 0.073284365 -0.3380519
-0.13596004 -0.44357017 -0.16446845 -0.07589988 -0.13493557 -0.15401468 0.085528485 0.08475941
-0.015219284 -0.06693158 -0.22570333 -0.05160904 -0.029378979 0.33163667 -0.18164437 -0.2779615
-0.19307654 0.20485644 0.12721154 0.3406192 -0.035620917 -0.24754913 0.0128764855 0.15070064
-0.0033898551 -0.2489293 -0.10482055 -0.2588395 -0.033612728 0.27218378 -0.2784787 0.2649643
-0.21094231 0.0656767 -0.10367605 0.40825498 0.20611593 0.017471565 0.14342071 -0.22080603
-0.2409118 -0.13051796 0.25673747 -0.16758828 -0.18155828 0.23990987 0.10768305 0.040125944
-0.11872793 0.3076643 0.22542882 -0.17706744 0.18414663 0.058033723 0.15048176 0.1656811
0.13581796 0.39394954 -0.10419014 0.026257783 0.108099505 0.033749964 -0.14262047 -0.21316808
00000000: 655a 3dbe 0d40 033e d4c2 8f3e 0646 c03d
00000010: 0242 583d 345e 0fbe 7020 763e dc7e 903b
00000020: 78ae b33d ec3e 13be 4d09 78bd f126 d4bd
00000030: 020b 1fbd 046d a23d f28c 793d 8315 553e
00000040: 0f4a 6e3e c4a0 5fbe a95b 053e 20e6 1abe
00000050: adf7 f53d db7a 053c 1438 6dbe 7071 093e
00000060: 770f 6cbc 9251 b43e 2f81 433e 1b54 8fbe
00000070: 6d43 82be 8345 b03c b501 b4bd 692c 723d
00000080: 62af 323d 92ab 8d3d 91b6 1cbe 697c 953e
00000090: 1bd3 0a3e 4dd2 80be cf89 9a3e ca7c 6dbe
000000a0: 4c1a 94be 268a 35be 9f3e 85be 0a6e 053e
000000b0: b40f c0bd cae3 adbe 08b4 653d 782a e2bc
000000c0: 244a 16be 5423 1ebe e9e1 903e f741 ec3a
000000d0: 2a78 f3bd 4958 ad3e 5b2c 0b3c fc0f 433e
000000e0: 1512 803e ae7c 023e 2add f03d 234f 8d3e
000000f0: 7a82 1c3e b43b 74be 84d0 1ebe 1fa5 80bd
00000100: 3ac0 85bb dda6 2cbe b716 7dbe 61d3 093e
00000110: 3fd7 783d 105f 313e 1cc8 843e 61f6 bbbd
00000120: 0ec5 4abd 7c67 7b3d 98b9 a03e 0fdd 593e
00000130: c718 873d 40a5 84be c1d4 1a3e c92f 0b3e
00000140: 2ed0 313e fe46 adbe 7882 fdbc cfbb 1a3e
00000150: 799e 963e 2256 093e b834 0f3e 144f 2abc
00000160: 87e9 19bd 1b1c f03c 3b90 5c3e 3a76 a13e
00000170: 9c0f bdbe fd40 8cbc a5f3 51be bfcb 563e
00000180: 8d69 3fbe ba2f 38be 5517 33be 8029 ef3d
00000190: 124e 65be 22fc 0cbd d9fe 5a3c 793a 9b3b
000001a0: a74b 97be 7489 663d 2c89 bfbd e9ce 4abe
000001b0: b7d9 30bc 5e53 c6bd ff06 7b3e ecbf 343e
000001c0: e915 123e d5ff cfbd b113 5fbe 4ff1 83be
000001d0: f9e7 033e 5031 593d 8118 883d a224 9e3e
000001e0: b4eb b43e a068 6bbc d4fe 88be 1f3d 7d3e
000001f0: de5f c43e 5ea9 6e3e 848b 183e cf84 6dbe
00000200: 13c9 cc3d 0d91 9c3e c2ec d63d 9335 c53d
00000210: ffaa 4eb8 2198 bdbd 756d 5abe b73c 833d
00000220: 175b babb 1e47 90be fcf9 5f3e 0a86 7d3d
00000230: 2bf9 093e 3390 2b3e d1bd 483e b287 89be
00000240: 9462 053e 1bd8 aebd 197c 7abd f652 403e
00000250: 9b2c 42be fca0 64be 440c d4bd 8293 c4bd
00000260: bc13 4dbe dbcb c6bd ebef b53c c9d0 4fbe
00000270: 9863 303e 02cb c1be 4fb2 313d d010 9e3e
00000280: a5a7 99bd 5d05 2dbe 2746 453e 78cb 83be
00000290: fb50 98be 5fa0 a63c 0f0d 423e ed4e 863d
000002a0: 13ba 2ebe 603a 8dbe 118d 26be e45f 6a3e
000002b0: f9f1 d53d 88a5 d33d d0d7 57be 102a 783e
000002c0: 5a81 12be 33e5 973e 491d 5abe 9f15 85be
000002d0: 8b0f 553e 8525 a43e 73e1 d03d 26de 153e
000002e0: bb10 2dbe 37a2 6b3e e42a 733e 75b6 523e
000002f0: e5a9 253c dff3 a7bd 1d16 963d 2315 adbe
00000300: 1c39 0bbe a11b e3be 6b6a 28be 6571 9bbd
00000310: 8d2c 0abe 06b6 1dbe 8f29 af3d 5796 ad3d
00000320: 4e5a 79bc 6d13 89bd c61e 67be 0064 53bd
00000330: 2fac f0bc 48cc a93e fb00 3abe f850 8ebe
00000340: dbb5 45be e3c5 513e be43 023e a465 ae3e
00000350: 3de7 11bd 857d 7dbe e5f7 523c 4551 1a3e
00000360: 5528 5ebb 53e7 7ebe 28ac d6bd 9c86 84be
00000370: 80ad 09bd ac5b 8b3e c394 8ebe 67a9 873e
00000380: 4301 58be 8181 863d 1c54 d4bd cc06 d13e
00000390: 0e10 533e 8720 8f3c e1dc 123e fa1a 62be
000003a0: 95b1 76be 80a6 05be 1873 833e 439c 2bbe
000003b0: 6aea 39be efaa 753e ee88 dc3d 1a5b 243d
000003c0: a127 f3bd 2d86 9d3e d0d6 663e 2b51 35be
000003d0: ef90 3c3e c5b4 6d3d e417 1a3e 4ea8 293e
000003e0: dd13 0b3e c1b3 c93e a461 d5bd 901a d73c
000003f0: 4663 dd3d 673d 0a3d 1a0b 12be bc48 5abe

transformer.layers.0.self_attn.o_proj.bias f4 [32]
-0.0032691306 0.027852027 -0.00988395 0.013117243 0.0024072295 0.02224367 -0.0019972138 -0.003253833
0.034048345 0.024561621 0.027504178 0.0036240672 -0.020066375 -0.015009273 0.015047362 0.0059758085
0.0060696537 -0.010862565 -0.0075977514 -0.0073998603 -0.004680909 -0.01181889 -0.00980897 0.017753202
0.0014405557 -0.04414321 0.021623448 0.0010913647 -0.010280697 -0.018452307 -0.00464418 -0.013439273
00000000: e93e 56bb ef29 e43c 4bf0 21bc b4e9 563c
00000010: 9cc2 1d3b 5b38 b63c b0e3 02bb 423e 55bb
00000020: 4776 0b3d 7435 c93c 7150 e13c c281 6d3b
00000030: 3d62 a4bc 74e9 75bc 3689 763c b7d0 c33b
00000040: f2e3 c63b e6f8 31bc 8ff6 f8bb 877a f2bb
00000050: 5062 99bb 05a4 41bc cdb5 20bc 2a6f 913c
00000060: 07d1 bc3a 83cf 34bd a823 b13c 1f0c 8f3a
00000070: 5e70 28bc 4b29 97bc 352e 98bb 6630 5cbc

transformer.layers.0.self_attn.qkv_proj.weight f4 [96, 32]
0.6865697 0.1595666 -0.26505235 -0.59190655 -0.19277734 -0.17346944 0.23316959 -0.41693583
0.14918572 -0.31161377 0.37362227 0.033197016 0.24727477 0.060459368 -0.06271391 -0.18191049
0.37090558 0.16177234 0.09646294 0.22606364 0.11094522 -0.061279904 0.0007307525 -0.028539337
-0.16879103 -0.12532707 -0.28226113 0.14208823 0.12574504 0.15424164 0.22381894 0.060341652
0.7023424 -0.24707119 0.15849851 -0.54552037 -0.29763168 0.29756302 0.048577145 -0.42951357
0.061605465 -0.13183486 0.35440585 -0.049563173 0.09586677 0.13274103 -0.11132355 0.012134896
0.2186605 0.065502204 0.09012515 -0.15394577 0.21075965 0.008909588 -0.0036640812 0.020085538
0.07142243 -0.13254608 -0.19050337 0.17436552 -0.032939497 -0.00014703043 0.15498234 -0.096277535
0.71571326 -0.36793622 0.33880916 0.2691365 0.01036553 0.34960228 -0.2975268 0.107741855
-0.2941617 0.1690645 -0.23835436 0.049719557 0.0029784495 -0.067351915 -0.219176 0.21130161
-0.0026453133 0.1100636 0.044093493 -0.14558028 0.15862457 -0.02818462 -0.03404139 -0.10405828
-0.39242974 -0.15539865 -0.06238045 -0.18015781 -0.14948042 -0.14794035 0.16744687 0.049124744
0.67414516 0.63201135 -0.41821867 -0.44804412 -0.17462547 -0.24075556 -0.2206545 -0.2727209
-0.12846142 -0.034359828 -0.057357773 -0.11590183 -0.102623165 0.099432446 -0.09710954 -0.096268974
0.31528026 -0.107271925 0.06765065 -0.21728216 0.1927892 0.1169586 -0.11937933 -0.21941291
-0.03462664 -0.06879285 -0.0508225 0.14635599 -0.17923555 0.14320877 0.05375285 -0.25857893
0.4903544 -0.36032444 0.6943452 0.40237555 -0.55923116 0.50435597 -0.2288765 -0.4426187
-0.20452006 -0.24554038 0.21939202 -0.29289994 0.113651946 0.101975456 -0.047878195 -0.027309248
-0.2102266 0.16528842 0.17394152 -0.13685846 0.1532021 0.10209201 -0.22261745 -0.07948728
0.18481198 0.122954704 -0.08398872 -0.10361839 -0.020700151 0.047820613 0.18625098 -0.14344925
-0.24922726 0.611813 0.538826 0.36947203 -0.3775292 0.47021684 -0.27900007 -0.22483146
-0.07722024 0.13726507 -0.18140496 0.00833626 -0.00780128 -0.18844731 0.001239985 -0.05701104
0.08244357 0.05103097 0.1275629 0.08874243 0.03760495 0.04389734 0.21362154 0.14915383
0.2978571 -0.1813804 0.15258147 0.13608506 -0.37683454 -0.10355186 0.017533174 -0.1982403
0.6251938 -0.22657433 -0.18256149 0.64353836 0.027777366 0.24251509 -0.39943862 0.3673864
-0.49098042 0.3201927 -0.38388884 0.029043838 -0.44116122 -0.18440004 -0.41866648 0.25924766
-0.0795099 -0.0034180684 -0.13919485 0.23159173 -0.11444586 -0.034959637 -0.11099563 -0.019526735
-0.2523921 0.074610025 0.14539285 -0.12565511 -0.033283845 -0.1695277 0.031420313 0.06353651
-0.47736403 0.5741765 0.68003273 -0.028007476 -0.27238032 0.05822416 -0.30914694 -0.4057233
0.22983867 -0.29676443 0.28147358 -0.28425264 0.09036534 0.044115327 0.27389127 -0.16553469
0.044473056 0.050147418 -0.20519246 -0.22953264 0.08241342 -0.19719943 0.0060843457 -0.12072433
0.28918603 0.033422142 0.15445015 0.10353444 -0.010853445 0.10371455 0.1138486 -0.14621066
00000000: 08c3 2f3f 6d65 233e f1b4 87be 3087 17bf
00000010: 6c67 45be f9a1 31be 02c4 6e3e 9d78 d5be
00000020: 24c4 183e d78b 9fbe 6b4b bf3e 98f9 073d
00000030: 9935 7d3e 3ea4 773d 2770 80bd be46 3abe
00000040: 56e7 bd3e a6a7 253e 5d8e c53d 3a7d 673e
00000050: 3f37 e33d a300 7bbd f88f 3f3a 54cb e9bc
00000060: 8ed7 2cbe bd55 00be 8884 90be 947f 113e
00000070: 4fc3 003e 85f1 1d3e cb30 653e cf28 773d
00000080: b6cc 333f 3b00 7dbe 6f4d 223e 39a7 0bbf
00000090: 2e63 98be 2e5a 983e d4f8 463d 34e9 dbbe
000000a0: 0356 7c3d b8ff 06be af74 b53e c102 4bbd
000000b0: cc55 c43d 44ed 073e 9afd e3bd 71d1 463c
000000c0: 8ae8 5f3e 0526 863d 8993 b83d f6a3 1dbe
000000d0: 61d1 573e 85f9 113c 1521 70bb 6d8a a43c
000000e0: ec45 923d 29ba 07be 5113 43be e08c 323e
000000f0: 91eb 06bd 2e2c 1ab9 b1b3 1e3e 282d c5bd
00000100: fc38 373f 2362 bcbe 6578 ad3e 42cc 893e
00000110: 2fd4 293c 12ff b23e 6f55 98be c3a7 dc3d
00000120: 5d9c 96be 3f1f 2d3e 2a13 74be bca6 4b3d
00000130: 1732 433b cdef 89bd ac6f 60be 735f 583e
00000140: fe5c 2dbb 0669 e13d 619b 343d ff12 15be
00000150: 7b6e 223e 6fe3 e6bc fc6e 0bbd 821c d5bd
00000160: 8dec c8be d320 1fbe a582 7fbd 4a7b 38be
00000170: 6511 19be ad7d 17be 3177 2b3e 0737 493d
00000180: c794 2c3f 7fcb 213f c220 d6be 0a66 e5be
00000190: 05d1 32be a088 76be 41f3 61be 13a2 8bbe
000001a0: 648b 03be e4bc 0cbd fcef 6abd f05d edbd
000001b0: 182c d2bd 3da3 cb3d 5ee1 c6bd ab28 c5bd
000001c0: 6a6c a13e 62b1 dbbd 6d8c 8a3d 377f 5ebe
000001d0: 886a 453e fe87 ef3d 267d f4bd c7ad 60be
000001e0: aad4 0dbd 44e3 8cbd 412b 50bd 58de 153e
000001f0: 8689 37be 52a5 123e f32b 5c3d 7564 84be
00000200: bb0f fb3e 727c b8be 9bc0 313f 2b04 ce3e
00000210: c629 0fbf 791d 013f 9a5e 6abe eb9e e2be
00000220: b56d 51be f06e 7bbe 4da8 603e fbf6 95be
00000230: 5ac2 e83d 82d8 d03d ed1b 44bd a5b7 dfbc
00000240: a445 57be 5e41 293e ba1d 323e a024 0cbe
00000250: 03e1 1c3e 9e15 d13d d4f5 63be 3aca a2bd
00000260: 5a3f 3d3e adcf fb3d 4702 acbd e135 d4bd
00000270: 5d93 a9bc 8cdf 433d 94b8 3e3e 5ce4 12be
00000280: 6e35 7fbe c79f 1c3f 80f0 093f 702b bd3e
00000290: 824b c1be 43c0 f03e 19d9 8ebe 383a 66be
000002a0: a525 9ebd 378f 0c3e 39c2 39be cf94 083c
000002b0: e1a1 ffbb 55f8 40be fe86 a23a 6984 69bd
000002c0: 2dd8 a83d da05 513d d99f 023e 97be b53d
000002d0: a607 1a3d b2cd 333d 9bbf 5a3e c8bb 183e
000002e0: ba80 983e c9bb 39be 513e 1c3e e259 0b3e
000002f0: 75f0 c0be ff12 d4bd bba1 8f3c 81ff 4abe
00000300: b30c 203f 1a03 68be 66f1 3abe eebe 243f
00000310: 5c8d e33c e055 783e 3883 ccbe 121a bc3e
00000320: c961 fbbe 4cf0 a33e 148d c4be 58ed ed3c
00000330: e2df e1be 5dd3 3cbe 745b d6be 1cbc 843e
00000340: 16d6 a2bd ac01 60bb 1889 0ebe 6226 6d3e
00000350: 9762 eabd d631 0fbd ad51 e3bd 88f6 9fbc
00000360: 8a39 81be 24cd 983d dde1 143e bcab 00be
00000370: a454 08bd ab98 2dbe 96b2 003d 6e1f 823d
00000380: 0f69 f4be 3bfd 123f a016 2e3f ef6f e5bc
00000390: 6f75 8bbe 757c 6e3d 8248 9ebe f7ba cfbe
000003a0: d45a 6b3e 82f1 97be 4e1d 903e 9089 91be
000003b0: 7711 b93d 46b2 343d 7a3b 8c3e ed81 29be
000003c0: 6129 363d 6167 4d3d f91d 52be 9b0a 6bbe
000003d0: 5ec8 a83d a6ee 49be 315f c73b 513e f7bd
000003e0: 3110 943e a8e5 083d 2e28 1e3e dd09 d43d
000003f0: a6d2 31bc 4b68 d43d 7429 e93d 3fb8 15be

transformer.layers.0.self_attn.qkv_proj.bias f4 [96]
0.0333501 0.010981242 0.03961159 -0.03640404 0.01178386 -0.012214619 0.017344922 -0.013407476
0.0071505187 0.016403273 -0.08539581 0.05394908 -0.002058638 0.018462708 0.022861356 0.04506064
-0.0054172897 -0.050365668 0.061273966 0.02944233 -0.029805627 -0.024330875 -0.035015482 -0.024571953
0.03905372 -0.028719153 -0.0075822757 0.013116301 -0.04124067 -0.07772814 0.032911018 -0.01286595
-0.00063067273 -0.0014789414 0.0001959951 -0.0017135456 -0.0014981503 -0.00020086874 -0.0001475198 -0.00109464
0.0012298501 -0.0009324566 -0.00022065372 -0.00053598086 -0.00033974432 -7.878254e-05 0.0005275326 -0.00024816586
0.00030612762 -0.0021643827 -0.00044421933 -0.0010427096 0.0015100293 -0.0002641501 0.0004166635 -0.00026839154
0.0014948164 8.176245e-05 0.0009816134 0.0008328354 -0.0010093465 -0.00015780091 0.00018515493 -0.0008110085
-0.013343074 -0.0050836694 0.012667401 -0.0068292404 -0.0012786896 -0.011039409 0.013716423 -0.0071427133
-0.01827787 -0.017615752 0.008595917 0.020199819 0.002434518 -0.002818775 0.019153325 -0.005424058
-0.03303603 0.014880748 -0.03169979 -0.012034509 0.0037720832 0.006451709 0.010321032 0.0046330397
-0.010918798 0.015353586 0.014904957 -0.00046479944 0.003468084 -0.016860085 -0.011427202 -0.00527935
00000000: 1d9a 083d abea 333c c33f 223d 671c 15bd
00000010: 1711 413c d31f 48bc f016 8e3c 08ab 5bbc
00000020: e64e ea3b 2860 863c 00e4 aebd b6f9 5c3d
00000030: 37ea 06bb 1b3f 973c bd47 bb3c 8191 383d
00000040: 8583 b1bb 3b4c 4ebd 69fa 7a3d 0b31 f13c
00000050: ee2a f4bc 8b51 c7bc 656c 0fbd 1f4b c9bc
00000060: cbf6 1f3d 6e44 ebbc bd74 f8bb c1e5 563c
00000070: faeb 28bd ee2f 9fbd b4cd 063d b5cb 52bc
00000080: bb53 25ba 0ad9 c1ba 0984 4d39 0d99 e0ba
00000090: 955d c4ba 4ba0 52b9 8baf 1ab9 067a 8fba
000000a0: ec32 a13a 1a70 74ba 485f 67b9 1181 0cba
000000b0: b61f b2b9 0e38 a5b8 1d4a 0a3a 421c 82b9
000000c0: c17f a039 51d8 0dbb 1ce6 e8b9 87ab 88ba
000000d0: 2dec c53a a07d 8ab9 a173 da39 e7b6 8cb9
000000e0: b7ed c33a e277 ab38 7ba9 803a a352 5a3a
000000f0: 0c4c 84ba 5c77 25b9 2626 4239 dc99 54ba
00000100: e99c 5abc e994 a6bb ee8a 4f3c d2c7 dfbb
00000110: b499 a7ba a3de 34bc d9ba 603c 6c0d eabb
00000120: 79bb 95bc e94e 90bc e4d5 0c3c 177a a53c
00000130: 6f8c 1f3b 32bb 38bb 6fe7 9c3c 4cbc b1bb
00000140: ca50 07bd 62ce 733c a4d7 01bd 642c 45bc
00000150: 0e35 773b dc68 d33b 8c19 293c c1d0 973b
00000160: c2e4 32bc 9b8d 7b3c ec33 743c 53b0 f3b9
00000170: cb48 633b 291e 8abc 2939 3bbc 66fe acbb

transformer.layers.0.linear_net.0.weight f4 [32, 32]
-0.11168442 -0.21081398 -0.06701368 -0.046350516 -0.15525115 0.07345735 0.042758405 -0.18106458
-0.07865956 0.1335168 -0.11787694 -0.17920648 -0.051662844 -0.038962226 0.1182035 0.0289666
0.022622991 -0.0841963 0.12687045 0.09991903 0.09728074 0.15692359 -0.20419821 0.07160128
-0.026137117 0.019036494 0.14099757 -0.27149716 -0.081548415 -0.13417855 0.06135331 0.13389857
0.22545943 -0.20567775 -0.018059105 -0.1045699 -0.016269937 0.102100454 0.16447021 -0.19930106
-0.12672743 0.060386166 0.24841826 -0.034554698 -0.03801871 0.13923782 -0.2100581 -0.18167889
-0.03769326 -0.08831069 0.12743932 0.07556262 -0.008977781 0.07457632 -0.215833 0.039594855
-0.22899434 0.029925436 0.0067836475 0.21809846 0.14927197 -0.0784835 0.17924957 0.009783172
-0.043661125 0.22204319 -0.12171153 0.081929825 -0.038365964 -0.02401917 -0.052161742 0.11237978
-0.08266331 -0.023370892 -0.12691528 -0.037382938 -0.049310327 -0.039265007 -0.113182425 -0.05014641
0.1581587 0.038170993 0.0033402843 0.062831245 -0.15281007 -0.06377031 0.08405893 -0.01390039
0.089919515 0.1454104 -0.038492437 -0.14111379 -0.25845155 -0.08014437 -0.15829468 0.08745297
-0.2037139 0.044855714 -0.12959708 0.06656373 -0.15216568 -0.16299838 0.04505233 0.027478078
0.015987765 0.06320942 -0.0397934 0.050979637 0.05597415 0.06244182 0.067768425 -0.015772676
-0.17156851 0.13594507 0.0015504166 0.21639249 -0.09986962 -0.13939764 0.19311506 0.17116088
-0.14664252 -0.116832696 0.07881989 0.12644781 -0.16272183 0.0971499 0.0961497 -0.12582481
-0.25238267 -0.092547655 0.14252555 -0.07389016 -0.07956963 0.10561891 0.067701764 0.22576244
0.01533928 0.18582287 0.035804432 0.122764476 -0.07938067 0.11455314 -0.13890232 -0.0076175714
-0.22477067 0.14700817 -0.055954795 6.379798e-05 -0.19015095 -0.06275952 -0.010280244 -0.002940382
0.05027691 -0.06306308 -0.16837382 0.023782564 -0.06643161 0.074938715 -0.17218909 0.06792746
-0.12356099 -0.0053223795 -0.065208964 0.21855721 0.012319004 0.01838136 0.003364543 -0.097386636
0.07242851 -0.050586108 -0.111276515 0.012314497 0.17291242 0.05188219 -0.05190582 0.09862504
0.13282304 0.1672282 -0.12599042 0.08271105 -0.15611792 0.2396173 0.061964326 0.08708143
0.2964295 -0.026281951 -0.027120236 -0.12605654 -0.07570978 0.10113369 -0.13686098 0.020594293
-0.2108895 -0.12679519 -0.1261267 0.15330236 -0.115019284 -0.05904399 0.017851794 0.037295695
0.0942458 -0.103147335 0.21689585 -0.1809878 0.073375836 -0.056004837 -0.075176015 -0.09364337
0.03794129 -0.14231083 -0.021044368 0.013797652 -0.10383525 0.13362339 -0.09072317 0.14869168
-0.07365733 0.16147663 -0.0838754 0.0030344566 -0.1884315 -0.010806549 -0.115022644 0.027837254
0.109875344 -0.002652614 0.06450818 0.11664343 -0.21638252 0.15150163 -0.069337815 -0.14332633
-0.016130984 -0.28916097 -0.022759782 -0.1280248 0.043304842 -0.1688364 -0.05114367 0.119854055
0.15456468 -0.107541084 -0.03365706 0.0069307317 -0.13609953 -0.12419736 -0.28337216 0.024794122
0.11504927 -0.04236864 -0.13315631 -0.014375215 -0.07327842 -0.040932484 0.048715174 -0.0106015885
00000000: cdba e4bd 9fdf 57be 783e 89bd 0ada 3dbd
00000010: 28fa 1ebe cf70 963d 7023 2f3d fe68 39be
00000020: 4318 a1bd a1b8 083e 7769 f1bd e781 37be
00000030: 6b9c 53bd db96 1fbd ad14 f23d 5d4b ed3c
00000040: da53 b93c 1c6f acbd 54ea 013e 59a2 cc3d
00000050: 203b c73d 94b0 203e 5619 51be b1a3 923d
00000060: 821d d6bc 6cf2 9b3c ab61 103e ad01 8bbe
00000070: db02 a7bd 1a66 09be 9c4d 7b3d b51c 093e
00000080: d6de 663e 309d 52be b0f0 93bc be28 d6bd
00000090: 8848 85bc 0b1a d13d e16a 283e 9415 4cbe
000000a0: d6c4 01be 7c57 773d 5b61 7e3e 3a89 0dbd
000000b0: 82b9 1bbd 5c94 0e3e 7819 57be 080a 3abe
000000c0: 3f64 1abd 3cdc b4bd 747f 023e 93c0 9a3d
000000d0: 8b17 13bc 78bb 983d 5303 5dbe 372e 223d
000000e0: 7e7d 6abe 3026 f53c 5c49 de3b 3455 5f3e
000000f0: c0da 183e f5bb a0bd 338d 373e 9949 203c
00000100: 02d6 32bd 4a5f 633e e543 f9bd d3ca a73d
00000110: a125 1dbd dac3 c4bc 8da7 55bd 5f27 e63d
00000120: 624b a9bd 5074 bfbc 14f6 01be da1e 19bd
00000130: a0f9 49bd 58d4 20bd 30cc e7bd 5266 4dbd
00000140: 5bf4 213e 3059 1c3d ace8 5a3b abad 803d
00000150: 3e7a 1cbe 029a 82bd 1727 ac3d 76be 63bc
00000160: b927 b83d 77e6 143e 3faa 1dbd 2280 10be
00000170: c353 84be bb22 a4bd 0018 22be 8b1a b33d
00000180: 609a 50be a0ba 373d 19b5 04be 9152 883d
00000190: 52d1 1bbe 0ce9 26be cb88 383d b519 e13c
000001a0: c6f8 823c f173 813d 67fe 22bd 06d0 503d
000001b0: 2645 653d fec2 7f3d 2cca 8a3d b335 81bc
000001c0: a8af 2fbe 2f35 0b3e 5937 cb3a fe95 5d3e
000001d0: 7188 ccbd 41be 0ebe f4bf 453e cc44 2f3e
000001e0: 7529 16be fb45 efbd 536c a13d 897b 013e
000001f0: 8da0 26be 87f6 c63d 22ea c43d 38d8 00be
00000200: 4d38 81be a089 bdbd 38f2 113e b953 97bd
00000210: 67f5 a2bd ba4e d83d 39a7 8a3d 452e 673e
00000220: 9a51 7b3c 5a48 3e3e aba7 123d f16b fb3d
00000230: 5592 a2bd d69a ea3d 693c 0ebe d29c f9bb
00000240: 482a 66be 4f89 163e db30 65bd 48cb 8538
00000250: eeb6 42be 1088 80bd 786e 28bc 6db3 40bb
00000260: 29ef 4d3d 3727 81bd 306a 2cbe a7d3 c23c
00000270: 4c0d 88bd 7879 993d 5652 30be 8d1d 8b3d
00000280: 8b0d fdbd 5b67 aebb 478c 85bd 76cd 5f3e
00000290: a6d5 493c 8294 963c aa7f 5c3b a572 c7bd
000002a0: 6655 943d 6133 4fbd f1e4 e3bd bec2 493c
000002b0: f40f 313e 6b82 543d 329b 54bd edfb c93d
000002c0: c302 083e df3d 2b3e a203 01be 6964 a93d
000002d0: 60dd 1fbe 3d5e 753e 4ece 7d3d c057 b23d
000002e0: 9cc5 973e 3f4d d7bc 422b debc f714 01be
000002f0: bb0d 9bbd 2e1f cf3d 4925 0cbe 5db5 a83c
00000300: 6bf3 57be 99d6 01be 5c27 01be 4bfb 1c3e
00000310: 3b8f ebbd 1cd8 71bd ed3d 923c 5fc3 183d
00000320: f103 c13d e93e d3bd f219 5e3e de54 39be
00000330: 1246 963d 5465 65bd e2f5 99bd 18c8 bfbd
00000340: 5368 1b3d eeb9 11be 3d65 acbc 8c0f 623c
00000350: 93a7 d4bd 92d4 083e 12cd b9bd a242 183e
00000360: a7d9 96bd 215a 253e dec6 abbd bcdd 463b
00000370: 30f4 40be f40d 31bc fe90 ebbd f40a e43c
00000380: 5306 e13d 7ad7 2dbb dd1c 843d c0e2 ee3d
00000390: 6193 5dbe 3e23 1b3e fc00 8ebd 23c4 12be
000003a0: 2025 84bc e80c 94be b972 babc ef18 03be
000003b0: 6b60 313d 73e3 2cbe 067c 51bd 0b76 f53d
000003c0: 3446 1e3e 803e dcbd fcdb 09bd 311b e33b
000003d0: ad5d 0bbe 2f5b febd 2816 91be 0b1d cb3c
000003e0: f49e eb3d bd8a 2dbd 215a 08be 0686 6bbc
000003f0: ff12 96bd d2a8 27bd 9089 473d 49b2 2dbc

transformer.layers.0.linear_net.0.bias f4 [32]
0.15469822 0.044495977 0.081284516 -0.11748931 0.17259082 -0.11817257 0.17118053 0.02919747
0.07064854 0.06920421 -0.06235899 0.07428835 0.12107972 -0.08903612 0.069297165 0.025950639
-0.12438705 0.15674539 0.14779752 0.18592076 0.016433304 -0.01087292 -0.107689396 -0.11037664
-0.103285536 -0.037458137 -0.03495465 0.096184075 0.061966304 0.0796635 -0.02029468 0.17206587
00000000: 3669 1e3e 6a41 363d 7f78 a63d 3c9e f0bd
00000010: a6bb 303e 7604 f2bd f349 2f3e 882f ef3c
00000020: 2fb0 903d f0ba 8d3d 246c 7fbd 7e24 983d
00000030: a5f8 f73d 9258 b6bd aceb 8d3d 6f96 d43c
00000040: a3be febd dd81 203e 3c58 173e 0362 3e3e
00000050: 239f 863c 5524 32bc 428c dcbd 260d e2bd
00000060: 5e87 d3bd b46d 19bd 9b2c 0fbd 28fc c43d
00000070: 61d0 7d3d 9e26 a33d 0741 a6bc 0932 303e

transformer.layers.0.linear_net.3.weight f4 [32, 32]
0.1866004 -0.17198364 -0.12075823 -0.046039242 0.012871936 -0.027425546 0.21040438 -0.042498257
-0.090678036 -0.09282179 0.10607108 -0.1807547 0.17591238 0.1405635 -0.17625488 -0.14074963
-0.049935445 -0.037920166 0.007825969 0.17493421 -0.08565023 0.038686182 0.023416275 -0.11956507
-0.061968263 0.018733531 -0.022081943 0.036956966 0.0950666 -0.0941299 0.03376737 0.12914278
-0.11651764 -0.19778754 -0.06769868 0.20122366 -0.08375521 0.15764771 0.059562594 -0.11361615
0.09171047 -0.093979724 0.1487582 0.018401135 0.13365716 -0.15254606 0.124821395 0.008984968
0.065977536 -0.04209716 0.12598185 0.14560191 -0.036688194 0.16096503 -0.11013877 0.16288081
-0.060583565 -0.0057271104 -0.06019698 -0.0600935 0.012011848 0.034357112 0.16671398 -0.12446733
-0.0045922766 -0.0567078 0.17005138 0.11605202 0.10065173 0.12760556 -0.030534042 0.061877016
-0.076444365 -0.035640225 0.16854699 -0.056871705 0.092022486 -0.14277644 -0.28888634 -0.10898538
-0.15660837 0.08352534 0.103356384 -0.15445134 0.10655479 0.11918471 -0.19630212 0.010694412
0.019452535 0.14372797 0.037831888 0.15040776 -0.050659727 0.18101141 -0.029954005 0.0897864
-0.17861928 0.10769012 -0.09106785 -0.10330159 -0.024645219 -0.10002038 -0.18902193 0.23277745
0.08517634 0.0016383913 0.10645657 0.046519324 -0.13754852 -0.09653164 -0.008340432 -0.21543442
0.08711377 -0.038911927 0.07764512 -0.18757428 0.12722518 0.026586235 0.012805916 -0.11201197
-0.052778684 0.17175119 -0.18910967 -0.10299443 0.05959408 0.18806824 -0.107896686 -0.2436338
-0.07865863 -0.23711897 0.06939366 0.1873929 0.021892387 -0.038130246 0.18825652 0.086602055
0.1286001 -0.08280738 0.23511934 0.109485336 0.09963623 0.13120574 -0.13620181 -0.1815788
-0.07145782 0.104037724 0.11422633 0.18258017 -0.13423748 0.09706699 -0.062387258 -0.2297616
0.0973347 0.043320753 0.05416349 -0.11288447 -0.101864055 -0.11776058 0.15782928 -0.04028658
0.17660132 0.22476617 -0.20028059 -0.10708677 -0.06206075 -0.023010889 -0.16394645 0.0069880853
0.10998066 -0.08425894 0.06970079 0.22445846 -0.0020026562 0.08364966 0.08589257 0.14171483
-0.0995236 0.035832904 0.13400155 0.0013201114 -0.13299811 0.027975801 -0.19752702 0.020448374
-0.30184615 0.124713875 -0.065746374 -0.11950171 0.059177022 0.09336893 -0.1625824 -0.016903374
0.16439724 0.013320504 0.11841681 0.123672985 -0.15419629 0.1833297 0.10548506 0.03841745
-0.010685585 -0.012384903 0.032521687 -0.036885165 -0.096728966 0.041411515 -0.08641473 0.19994816
0.15124305 -0.12035342 0.13347839 -0.079846516 -0.044744115 -0.13391785 0.018533675 0.058148347
0.14819297 0.050240953 -0.08337094 -0.048456997 -0.10636834 -0.3907188 0.18454075 0.26301166
-0.10624525 0.25278178 0.16763793 -0.108202145 -0.12078321 0.13732556 0.10253668 0.22083166
-0.108637884 0.15312839 0.038416114 -0.0940215 0.032097854 0.16734098 0.08859303 -0.071208835
-0.06894229 -0.090957336 -0.17972057 -0.061337955 0.036589403 -0.042822585 -0.009863935 -0.04433291
0.051302098 -0.07655323 -0.11767539 -0.027162936 0.10179139 -0.20721968 -0.082508564 -0.040165283
00000000: 2d14 3f3e 7b1c 30be 1750 f7bd a593 3cbd
00000010: d0e4 523c 8aab e0bc 3f74 573e a712 2ebd
00000020: 68b5 b9bd 5a19 bebd cb3b d93d c317 39be
00000030: 6022 343e e1ef 0f3e 297c 34be ac20 10be
00000040: 1c89 4cbd 2d52 1bbd 7e38 003c f421 333e
00000050: 6369 afbd 6775 1e3d 7dd3 bf3c 88de f4bd
00000060: 6fd2 7dbd 1077 993c 31e5 b4bc 3060 173d
00000070: 47b2 c23d 2dc7 c0bd a74f 0a3d 013e 043e
00000080: cda0 eebd d188 4abe 9ba5 8abd 930d 4e3e
00000090: da87 abbd 676e 213e e8f7 733d 96af e8bd
000000a0: b3d2 bb3d 7178 c0bd 1254 183e fabd 963c
000000b0: 6cdd 083e 0935 1cbe 5ca2 ff3d b035 133c
000000c0: 3b1f 873d 126e 2cbd 6301 013e ab18 153e
000000d0: 5c46 16bd 04d4 243e 6f90 e1bd 3aca 263e
000000e0: 7926 78bd 7caa bbbb 1c91 76bd 9a24 76bd
000000f0: 58cd 443c 0bba 0c3d 12b7 2a3e bae8 febd
00000100: cf7a 96bb 7046 68bd f321 2e3e aeac ed3d
00000110: 7f22 ce3d 08ab 023e 8722 fabc c172 7d3d
00000120: dd8e 9cbd 7cfb 11bd 9597 2c3e 4ef2 68bd
00000130: 4976 bc3d fd33 12be e9e8 93be ba33 dfbd
00000140: f25d 20be 550f ab3d 83ac d33d 7e28 1ebe
00000150: 6639 da3d 1d17 f43d 6c03 49be 9d37 2f3c
00000160: ec5a 9f3c 6d2d 133e 9cf5 1a3d 7e04 1a3e
00000170: 9380 4fbd 0e5b 393e 1a62 f5bc efe1 b73d
00000180: f9e7 36be a38c dc3d c881 babd c98f d3bd
00000190: c5e4 c9bc 7cd7 ccbd f78e 41be 365d 6e3e
000001a0: ef70 ae3d 4abf d63a e705 da3d 0c8b 3e3d
000001b0: 85d9 0cbe 61b2 c5bd 4fa6 08bc d79a 5cbe
000001c0: b468 b23d 1d62 1fbd 6804 9f3d 7913 40be
000001d0: 5147 023e 60cb d93c e8cf 513c 8866 e5bd
000001e0: 762e 58bd 8bdf 2f3e f7a5 41be beee d2bd
000001f0: ec18 743d f694 403e f0f8 dcbd 247b 79be
00000200: c717 a1bd 51cf 72be 431e 8e3d ede3 3f3e
00000210: aa57 b33c 762e 1cbd 51c6 403e 6b5c b13d
00000220: bfaf 033e ea96 a9bd 20c3 703e d939 e03d
00000230: 140e cc3d cc5a 063e 7d78 0bbe cbef 39be
00000240: 7a58 92bd bb11 d53d 7eef e93d 4cf6 3a3e
00000250: 8d75 09be 0fcb c63d c889 7fbd a046 6bbe
00000260: 6a57 c73d 1a71 313d 89da 5d3d f92f e7bd
00000270: 1a9e d0bd 752c f1bd 009e 213e 8a03 25bd
00000280: fad6 343e 1a29 663e 5b16 4dbe 4f50 dbbd
00000290: 6a33 7ebd 5581 bcbc 94e1 27be 4ffc e43b
000002a0: 8a3d e13d f38f acbd 4abf 8e3d 70d8 653e
000002b0: ff3e 03bb 8350 ab3d 72e8 af3d b11d 113e
000002c0: 07d3 cbbd 86c5 123d b437 093e 9707 ad3a
000002d0: a830 08be 822d e53c 8644 4abe 5983 a73c
000002e0: 948b 9abe fd69 ff3d 09a6 86bd 50bd f4bd
000002f0: 9b63 723d 3638 bf3d 007c 26be f278 8abc
00000300: c057 283e 3e3e 5a3c 8384 f23d 4348 fd3d
00000310: a2e5 1dbe c8ba 3b3e 8d08 d83d 9e5b 1d3d
00000320: 9812 2fbc 0cea 4abc 7635 053d e614 17bd
00000330: d619 c6bd 1f9f 293d 35fa b0bd 36bf 4c3e
00000340: 75df 1a3e db7b f6bd 8fae 083e 9286 a3bd
00000350: 9b45 37bd c321 09be efd3 973c f62c 6e3d
00000360: e6bf 173e 75c9 4d3d 62be aabd d87a 46bd
00000370: a5d7 d9bd 4b0c c8be 40f8 3c3e 77a9 863e
00000380: 1c97 d9bd 9d6c 813e 47a9 2b3e 1699 ddbd
00000390: 305d f7bd 129f 0c3e c0fe d13d b221 623e
000003a0: 8a7d debd b0cd 1c3e 375a 1d3d 588e c0bd
000003b0: 0a79 033d 6f5b 2b3e 4370 b53d f0d5 91bd
000003c0: 9e31 8dbd d747 babd ab08 38be 823d 7bbd
000003d0: c5de 153d bc66 2fbd 589c 21bc 6d96 35bd
000003e0: 2622 523d f1c7 9cbd cbff f0bd ce84 debc
000003f0: 0178 d03d 6531 54be 40fa a8bd 5a84 24bd

transformer.layers.0.linear_net.3.bias f4 [32]
0.100839384 0.080530874 0.0967189 0.03889116 0.123926185 -0.019156942 -0.053552147 0.10280714
-0.14266878 0.15258577 0.16679512 0.1387375 0.11175942 -0.047682326 -0.097987056 0.07604125
0.1719182 0.036892094 -0.016202422 -0.110240996 0.14341195 0.13095413 -0.00014554217 -0.10546331
-0.11137733 -0.17412385 -0.050021205 0.09816084 0.13805279 -0.15438293 0.118217774 0.14030655
00000000: e184 ce3d 5fed a43d 8f14 c63d 564c 1f3d
00000010: 03cd fd3d 05ef 9cbc 7f59 5bbd 8d8c d23d
00000020: c417 12be 723f 1c3e 57cc 2a3e 3411 0e3e
00000030: 1fe2 e43d 8b4e 43bd 70ad c8bd 84bb 9b3d
00000040: 530b 303e 2a1c 173d f1ba 84bc 08c6 e1bd
00000050: 95da 123e d718 063e ae9c 18b9 26fd d7bd
00000060: cc19 e4bd 864d 32be 09e3 4cbd 8d08 c93d
00000070: b65d 0d3e 8f16 1ebe 291c f23d 85ac 0f3e

transformer.layers.0.norm.weight f4 [32]
0.9647206 1.0014466 0.9236046 0.9282431 0.9255953 0.90990025 1.0848165 0.9252447
0.89599574 1.0151637 0.9230147 0.9567234 1.0874288 0.91020125 1.0373405 1.0324564
0.98853344 0.94690955 1.0525931 1.1010067 0.98669094 1.05802 1.0633315 1.0224879
1.0678782 0.99537945 1.0201578 1.0683286 1.0343918 0.97627014 1.0467952 1.0226333
00000000: eef7 763f 672f 803f 5a71 6c3f 57a1 6d3f
00000010: d0f3 6c3f 39ef 683f 44db 8a3f d6dc 6c3f
00000020: fa5f 653f e2f0 813f b14a 6c3f d3eb 743f
00000030: de30 8b3f f302 693f 93c7 843f 8827 843f
00000040: 8710 7d3f aa68 723f 5fbb 863f caed 8c3f
00000050: c797 7c3f 336d 873f 3f1b 883f e2e0 823f
00000060: 3cb0 883f 30d1 7e3f 8894 823f febe 883f
00000070: f366 843f d7ec 793f 63fd 853f a6e5 823f

transformer.layers.0.norm.bias f4 [32]
-0.0018125551 0.024697702 -0.010922284 -0.0035973135 0.018033177 0.018959813 -0.005073754 -0.012426001
0.005174416 0.024750484 0.0246118 0.010776225 -0.027529595 -0.01129781 0.011305265 -0.0150496075
0.00080535666 -0.025306104 -0.00030231735 0.0014579821 0.0049863285 -0.007784048 -0.006582063 0.004615877
0.006766149 -0.034054026 0.019440506 -0.0124375 -0.010569073 -0.013704394 0.005972132 -0.011018518
00000000: 4293 edba d652 ca3c 61f3 32bc e8c0 6bbb
00000010: 50ba 933c 9c51 9b3c bc41 a6bb 6d96 4bbc
00000020: 268e a93b 87c1 ca3c b09e c93c c38e 303c
00000030: bf85 e1bc 731a 39bc b839 393c a192 76bc
00000040: 921e 533a bf4e cfbc 5980 9eb9 c319 bf3a
00000050: 5b64 a33b 5411 ffbb 59ae d7bb c840 973b
00000060: 92b6 dd3b 3c7c 0bbd b241 9f3c a8c6 4bbc
00000070: e829 2dbc 6588 60bc e0b1 c33b 0487 34bc

output_net.0.weight f4 [32, 32]
-0.0038616024 0.051266033 0.09492451 -0.025455173 0.0018483099 -0.0958164 -0.015647091 0.1063161
-0.005175333 0.0025335746 0.012003073 0.020054847 -0.013661475 -0.00036390056 0.039914556 0.018878935
-0.07522365 -0.09369338 0.12875427 0.013046328 0.12522647 -0.07443846 -0.03692455 -0.028920956
0.041180547 0.03644748 0.04700774 -0.016456855 0.007735871 -0.116039015 0.071906075 -0.07468724
-0.08527489 -0.03370787 -0.035961885 0.017018508 0.039379843 0.06741734 -0.027046459 -0.07698207
0.12748964 0.106654085 -0.1048188 -0.1526665 0.07620257 0.034036387 -0.0030284866 0.028358925
-0.037859764 0.07200011 0.003644816 0.053115956 0.012108101 -0.011705192 0.031096227 -0.017994994
-0.061156698 0.018376248 -0.022801181 -0.0058515603 -0.08434403 -0.13747454 -0.04168159 0.012584568
-0.035516698 -0.0335051 0.013659035 0.07750687 -0.06798268 0.06740034 0.10518368 -0.022715472
0.12579718 -0.06360201 -0.007474067 -0.046076387 0.13583124 -0.044717457 -0.067147 0.16122791
0.020020967 0.13401617 -0.1688595 0.025666127 0.04010102 0.17890325 0.028861277 -0.03976335
-0.022114718 -0.016580664 -0.033376064 0.15186918 0.14164306 -0.05459386 0.06611466 0.031793103
-0.15817948 -0.10593372 -0.06678685 0.1648212 -0.13603467 -0.13355345 -0.0148840975 -0.11209276
0.03649877 -0.068394616 0.0486514 -0.10989495 0.049225565 -0.114644505 -0.08593893 0.09404166
0.15048961 -0.1149133 -0.17477581 -0.13434322 -0.09478183 -0.1579209 0.0058931885 -0.05793015
-0.068103306 -0.040120408 0.014818942 -0.1978804 0.20712774 0.032597903 0.0843942 -0.13580264
-0.076862045 -0.061809678 -0.015005962 -0.10184488 -0.1317804 -0.013466294 -0.11367485 -0.14297207
0.07212525 0.081948645 -0.1368338 -0.0513142 0.052173283 -0.06433385 -0.08796612 0.03521074
-0.16023822 0.090956986 -0.045206517 -0.06368407 0.068905465 0.043790344 -0.07295409 -0.11352677
-0.14747497 -0.12700854 -0.020074286 -0.01828613 -0.07030715 -0.123202965 -0.05854731 -0.03397914
-0.1089498 0.0828929 0.10078576 0.14471748 0.035508584 -0.017096164 0.35929063 -0.07968096
-0.023456994 0.1933141 -0.016571071 0.20047192 -0.105051875 -0.030619053 0.15939851 -0.07914766
0.017045265 -0.02354816 -0.019469013 -0.16989674 0.094056554 -0.18242152 0.00881682 -0.07559504
-0.092939556 0.31215274 0.18632855 -0.100496985 0.01155749 -0.15229756 0.076066084 -0.011744863
-0.09905136 0.009141061 0.062191788 0.028298398 -0.0881972 -0.041932724 -0.17716037 0.07188843
0.04998143 -0.051164366 0.098241374 -0.046779327 -0.0014793715 0.029830307 -0.041175067 -0.024991758
0.04902056 0.1084248 0.083030075 0.012816412 -0.053936467 0.059091564 -0.035960622 -0.047248505
-0.015290226 0.03444786 -0.0068059466 0.0091903815 0.08286963 -0.056137007 -0.13939652 0.010973709
0.052203298 -0.03263554 0.05548736 0.0115818605 0.009922096 -0.021364512 -0.04571788 0.0152749745
-0.07296599 0.021391397 0.11921705 -0.09588772 0.07839523 0.025771435 -0.05207434 0.05699633
0.099384576 -0.08226946 0.09384521 0.0073027313 -0.043882094 -0.013591801 0.016966322 -0.058270555
-0.00094308355 -0.03271216 -0.0056610443 -0.024663148 0.13077484 0.07311184 -0.04165165 -0.07204621
00000000: f012 7dbb 55fc 513d c867 c23d 5e87 d0bc
00000010: fd42 f23a 643b c4bd 542e 80bc 41bc d93d
00000020: d795 a9bb 540a 263b 89a8 443c 104a a43c
00000030: 61d4 5fbc e8c9 beb9 727d 233d ffa7 9a3c
00000040: db0e 9abd 51e2 bfbd 29d8 033e 44c0 553c
00000050: 5e3b 003e 3173 98bd 323e 17bd a4eb ecbc
00000060: efac 283d f449 153d 308b 403d 87d0 86bc
00000070: 307d fd3b dda5 edbd 7e43 933d a0f5 98bd
00000080: 9aa4 aebd 4311 0abd c54c 13bd 666a 8b3c
00000090: c24c 213d 1a12 8a3d 8990 ddbc c7a8 9dbd
000000a0: a58c 023e 756d da3d 3dab d6bd 9b54 1cbe
000000b0: 1810 9c3d bd69 0b3d 9379 46bb fa50 e83c
000000c0: d712 1bbd cb74 933d dedd 6e3b 1e90 593d
000000d0: 0e61 463c 22c7 3fbc 84bd fe3c 3d6a 93bc
000000e0: 727f 7abd c989 963c 8bc9 babc 72be bfbb
000000f0: 90bc acbd 20c6 0cbe 51ba 2abd 812f 4e3c
00000100: f579 11bd a53c 09bd 25ca 5f3c ecbb 9e3d
00000110: 813a 8bbd 3109 8a3d 8b6a d73d cc15 babc
00000120: fad0 003e c541 82bd 05e9 f4bb 98ba 3cbd
00000130: 5817 0b3e a729 37bd 5e84 89bd ee18 253e
00000140: 0303 a43c 893b 093e 81e9 2cbe c541 d23c
00000150: f840 243d 6a32 373e 7c6e ec3c e5de 22bd
00000160: ed29 b5bc 2cd4 87bc 57b5 08bd 9883 1b3e
00000170: e10a 113e d09d 5fbd 1f67 873d 7c39 023d
00000180: cdf9 21be c7f3 d8bd 8bc7 88bd e3c6 283e
00000190: ac4c 0bbe 3cc2 08be 6edc 73bc e490 e5bd
000001a0: bc7f 153d 7a12 8cbd b146 473d 9b10 e1bd
000001b0: bfa0 493d bdca eabd c000 b0bd ea98 c03d
000001c0: f319 1a3e aa57 ebbd 6ef8 32be 4591 09be
000001d0: fa1c c2bd 04b6 21be a61b c13b 2a48 6dbd
000001e0: bf79 8bbd 4c55 24bd 26cb 723c 29a1 4abe
000001f0: 4b19 543e 6185 053d ded6 ac3d d90f 0bbe
00000200: d969 9dbd 252c 7dbd 91db 75bc 0c94 d0bd
00000210: 71f1 06be bba1 5cbc 5cce e8bd 4567 12be
00000220: 67b6 933d b1d4 a73d 291e 0cbe d72e 52bd
00000230: a7b3 553d 77c1 83bd 9527 b4bd 2339 103d
00000240: 7d15 24be a847 ba3d 782a 39bd cb6c 82bd
00000250: 4f1e 8d3d 815d 333d f468 95bd b980 e8bd
00000260: ae03 17be 870e 02be d472 a4bc cbcc 95bc
00000270: 32fd 8fbd d651 fcbd 4ecf 6fbd b62d 0bbd
00000280: 1321 dfbd c1c3 a93d c468 ce3d d230 143e
00000290: 7371 113d 410d 8cbc f1f4 b73e c52f a3bd
000002a0: e228 c0bc 22f4 453e 0ec0 87bc 8348 4d3e
000002b0: 7025 d7bd cfd4 fabc 5d39 233e 2b18 a2bd
000002c0: 83a2 8b3c 12e8 c0bc 7b7d 9fbc 69f9 2dbe
000002d0: b9a0 c03d b5cc 3abe 6c74 103c 93d1 9abd
000002e0: 1857 bebd 7cd2 9f3e e9cc 3e3e 5dd1 cdbd
000002f0: a05b 3d3c e4f3 1bbe 89c8 9b3d 876d 40bc
00000300: 70db cabd 64c4 153c d1bc 7e3d 0bd2 e73c
00000310: bca0 b4bd a6c1 2bbd 8769 35be 3e3a 933d
00000320: 54b9 4c3d ba91 51bd c632 c93d ae9b 3fbd
00000330: 78e7 c1ba b05e f43c 30a7 28bd 84bb ccbc
00000340: c8c9 483d d20d de3d ac0b aa3d eefb 513c
00000350: 7cec 5cbd ff09 723d 724b 13bd a687 41bd
00000360: db83 7abc 3319 0d3d 6b04 dfbb 4193 163c
00000370: 8db7 a93d ebef 65bd f6bd 0ebe 12cb 333c
00000380: 20d3 553d d8ac 05bd b746 633d d8c1 3d3c
00000390: 4990 223c a104 afbc ac42 3bbd e343 7a3c
000003a0: 316f 95bd 033d af3c 1228 f43d c860 c4bd
000003b0: ae8d a03d 9e1e d33c e74b 55bd fc74 693d
000003c0: 248a cb3d e47c a8bd eb31 c03d c04b ef3b
000003d0: b6bd 33bd 25b0 5ebc f5fc 8a3c 1bad 6ebd
000003e0: 4439 77ba 30fd 05bd 4880 b9bb 5f0a cabc
000003f0: d7e9 053e a9bb 953d ec9a 2abd f78c 93bd

output_net.0.bias f4 [32]
-0.09730802 -0.107345864 -0.17708944 -0.13250048 -0.10144395 -0.08217429 0.042920034 -0.016549667
0.11797542 -0.042507622 -0.04050852 -0.03626909 -0.080896564 0.07132599 0.117942594 0.13413991
0.12204601 -0.031882912 0.14517455 -0.009069881 0.03310543 0.07795771 0.15812612 0.15901008
-0.0354046 -0.11422836 0.018751794 -0.13080433 -0.060940027 -0.10262588 -0.034644257 -0.120696455
00000000: 6d49 c7bd 26d8 dbbd ef56 35be 35ae 07be
00000010: d8c1 cfbd ff4a a8bd ebcc 2f3d 2b93 87bc
00000020: 199d f13d 791c 2ebd 43ec 25bd e68e 14bd
00000030: 19ad a5bd 5c13 923d e38b f13d f95b 093e
00000040: 42f3 f93d a897 02bd a3a8 143e d799 14bc
00000050: 8f99 073d 4ba8 9f3d d0eb 213e 8ad3 223e
00000060: 6a04 11bd 8ff0 e9bd 5d9d 993c 92f1 05be
00000070: 409c 79bd 842d d2bd 23e7 0dbd b42f f7bd

output_net.1.weight f4 [32]
0.956222 0.9671941 1.2822343 1.3568861 0.99174225 1.5523393 1.1324692 0.978097
1.3037575 1.495415 1.4475465 1.4053859 1.3065239 1.3249146 1.3247142 1.3441015
1.5345112 1.415556 1.4097316 1.4275653 1.4457244 1.4292272 1.4176941 1.40554
1.445159 1.4996283 1.3508781 0.977688 1.4346342 1.45072 1.4291464 1.5127852
00000000: f7ca 743f 089a 773f 4120 a43f 72ae ad3f
00000010: d2e2 7d3f 0eb3 c63f c0f4 903f 9164 7a3f
00000020: 87e1 a63f c269 bf3f 3449 b93f afe3 b33f
00000030: 2d3c a73f cd96 a93f 3c90 a93f 850b ac3f
00000040: dd6a c43f f030 b53f 1672 b43f 76ba b63f
00000050: 7f0d b93f ebf0 b63f 0077 b53f bce8 b33f
00000060: f8fa b83f d2f3 bf3f 93e9 ac3f c349 7a3f
00000070: 18a2 b73f 31b1 b93f 45ee b63f f2a2 c13f

output_net.1.bias f4 [32]
-0.05429353 -0.03134577 0.31818533 0.18974017 0.0061925403 0.42555863 0.23285705 0.0072886557
0.29370916 0.39274994 0.35371143 0.31547418 0.31353962 0.3318284 0.3023522 0.2972807
0.37439588 0.27760231 0.32999963 0.3438285 0.28564322 0.30024976 0.3891924 0.36347905
0.39825186 0.37469146 0.30589202 0.0052682944 0.37167183 0.35006154 0.34613085 0.3754592
00000000: e462 5ebd 6c64 00bd 30e9 a23e 3f4b 423e
00000010: cbea ca3b d2e2 d93e 1472 6e3e add5 ee3b
00000020: 0c61 963e 8516 c93e aa19 b53e d585 a13e
00000030: 4488 a03e 69e5 a93e e8cd 9a3e 2d35 983e
00000040: d1b0 bf3e e421 8e3e b6f5 a83e 4a0a b03e
00000050: d43f 923e 56ba 993e 3a44 c73e ed19 ba3e
00000060: abe7 cb3e 8fd7 bf3e e19d 9c3e a8a1 ac3b
00000070: c54b be3e 443b b33e 1038 b13e 303c c03e
